…
Experiment folder: C:\Users\Bonbec\Documents\UTT\ERA01\AN2DL\Defi_01\Model_Design_Implementation\Model_Design_Implementation\AN2DL_Project-20251110T201034Z-1-001\AN2DL_Twin_powers\outputs\model_runs_light_inv\20251115_021111_cnn_lr0.001_bs64_drop0.2_seed49
Hyperparameters:
  lr: 0.001
  batch_size: 64
  dropout: 0.2
  seed: 49

Torchinfo summary:

==========================================================================================
Layer (type:depth-idx)                   Output Shape              Param #
==========================================================================================
PainCNN                                  [64, 3]                   --
├─Sequential: 1-1                        [64, 64, 4]               --
│    └─Conv1d: 2-1                       [64, 192, 35]             33,600
│    └─BatchNorm1d: 2-2                  [64, 192, 35]             384
│    └─ReLU: 2-3                         [64, 192, 35]             --
│    └─MaxPool1d: 2-4                    [64, 192, 17]             --
│    └─Conv1d: 2-5                       [64, 128, 17]             122,880
│    └─BatchNorm1d: 2-6                  [64, 128, 17]             256
│    └─ReLU: 2-7                         [64, 128, 17]             --
│    └─MaxPool1d: 2-8                    [64, 128, 8]              --
│    └─Conv1d: 2-9                       [64, 64, 8]               40,960
│    └─BatchNorm1d: 2-10                 [64, 64, 8]               128
│    └─ReLU: 2-11                        [64, 64, 8]               --
│    └─MaxPool1d: 2-12                   [64, 64, 4]               --
├─AdaptiveAvgPool1d: 1-2                 [64, 64, 1]               --
├─Sequential: 1-3                        [64, 3]                   --
│    └─Linear: 2-13                      [64, 64]                  4,160
│    └─ReLU: 2-14                        [64, 64]                  --
│    └─Dropout: 2-15                     [64, 64]                  --
│    └─Linear: 2-16                      [64, 3]                   195
==========================================================================================
Total params: 202,563
Trainable params: 202,563
Non-trainable params: 0
Total mult-adds (Units.MEGABYTES): 230.26
==========================================================================================
Input size (MB): 0.31
Forward/backward pass size (MB): 9.67
Params size (MB): 0.81
Estimated Total Size (MB): 10.79
…
